 Layer (type)                Output Shape              Param #   
=================================================================
 hand_embedding (InputLayer  [(None, 128)]             0         
 )                                                               
                                                                 
 batch_normalization (Batch  (None, 128)               512       
 Normalization)                                                  
                                                                 
 re_lu (ReLU)                (None, 128)               0         
                                                                 
 dropout (Dropout)           (None, 128)               0         
                                                                 
 custom_gesture_recognizer_  (None, 256)               33024     
 0 (Dense)                                                       
                                                                 
 batch_normalization_1 (Bat  (None, 256)               1024      
 chNormalization)                                                
                                                                 
 re_lu_1 (ReLU)              (None, 256)               0         
                                                                 
 dropout_1 (Dropout)         (None, 256)               0         
                                                                 
 custom_gesture_recognizer_  (None, 128)               32896     
 1 (Dense)                                                       
                                                                 
 batch_normalization_2 (Bat  (None, 128)               512       
 chNormalization)                                                
                                                                 
 re_lu_2 (ReLU)              (None, 128)               0         
                                                                 
 dropout_2 (Dropout)         (None, 128)               0         
                                                                 
 custom_gesture_recognizer_  (None, 64)                8256      
 2 (Dense)                                                       
                                                                 
 batch_normalization_3 (Bat  (None, 64)                256       
 chNormalization)                                                
                                                                 
 re_lu_3 (ReLU)              (None, 64)                0         
                                                                 
 dropout_3 (Dropout)         (None, 64)                0         
                                                                 
 custom_gesture_recognizer_  (None, 24)                1560      
 out (Dense)                                                     
                                                                 
=================================================================
Total params: 78040 (304.84 KB)
Trainable params: 76888 (300.34 KB)
Non-trainable params: 1152 (4.50 KB)
_________________________________________________________________
None
Epoch 1/40
53/53 [==============================] - 4s 15ms/step - loss: 3.1536 - categorical_accuracy: 0.0542 - val_loss: 2.3951 - val_categorical_accuracy: 0.3333 - lr: 0.0010
…
26/26 [==============================] - 0s 16ms/step - loss: 0.4677 - categorical_accuracy: 0.7488 - val_loss: 0.3903 - val_categorical_accuracy: 0.8519 - lr: 6.2353e-04
Epoch 49/50
26/26 [==============================] - 0s 17ms/step - loss: 0.4740 - categorical_accuracy: 0.7320 - val_loss: 0.3844 - val_categorical_accuracy: 0.8519 - lr: 6.1729e-04
Epoch 50/50
26/26 [==============================] - 1s 20ms/step - loss: 0.4869 - categorical_accuracy: 0.7488 - val_loss: 0.3745 - val_categorical_accuracy: 0.8426 - lr: 6.1112e-04
108/108 [==============================] - 0s 1ms/step - loss: 0.2718 - categorical_accuracy: 0.8889
Test loss:0.2717980146408081, Test accuracy:0.8888888955116272
0.8888888955116272 0.3 [256, 128, 64] 0.001 32 50

Model: "model_17"

 Layer (type)                Output Shape              Param #   
=================================================================
 hand_embedding (InputLayer  [(None, 128)]             0         
 )                                                               
                                                                 
 batch_normalization_68 (Ba  (None, 128)               512       
 tchNormalization)                                               
                                                                 
 re_lu_68 (ReLU)             (None, 128)               0         
                                                                 
 dropout_68 (Dropout)        (None, 128)               0         
                                                                 
 custom_gesture_recognizer_  (None, 256)               33024     
 0 (Dense)                                                       
                                                                 
 batch_normalization_69 (Ba  (None, 256)               1024      
 tchNormalization)                                               
                                                                 
 re_lu_69 (ReLU)             (None, 256)               0         
                                                                 
 dropout_69 (Dropout)        (None, 256)               0         
                                                                 
 custom_gesture_recognizer_  (None, 128)               32896     
 1 (Dense)                                                       
                                                                 
 batch_normalization_70 (Ba  (None, 128)               512       
 tchNormalization)                                               
                                                                 
 re_lu_70 (ReLU)             (None, 128)               0         
                                                                 
 dropout_70 (Dropout)        (None, 128)               0         
                                                                 
 custom_gesture_recognizer_  (None, 64)                8256      
 2 (Dense)                                                       
                                                                 
 batch_normalization_71 (Ba  (None, 64)                256       
 tchNormalization)                                               
                                                                 
 re_lu_71 (ReLU)             (None, 64)                0         
                                                                 
 dropout_71 (Dropout)        (None, 64)                0         
                                                                 
 custom_gesture_recognizer_  (None, 24)                1560      
 out (Dense)                                                     
                                                                 
=================================================================
Total params: 78040 (304.84 KB)
Trainable params: 76888 (300.34 KB)
Non-trainable params: 1152 (4.50 KB)
_________________________________________________________________
None
Epoch 1/80
26/26 [==============================] - 2s 30ms/step - loss: 3.1255 - categorical_accuracy: 0.0709 - val_loss: 2.5935 - val_categorical_accuracy: 0.2130 - lr: 0.0010
…
